models/inflation_predictor_model_v1.pth (torch, 6866 bytes, 5 tensors)

rnn.weight_ih_l0 f4 [32, 1]
000000 4b 54 e2 3d e6 d3 9e bd 4c e5 51 3e 85 72 d6 bc
       0.11051234 -0.0775526 0.20497626 -0.026177654
000010 d7 49 34 be 02 3d cc 3d cd 0c 3f 3f 96 cc 22 3e
       -0.17606293 0.09972574 0.7462891 0.15898356
000020 fd 2f fb bd 4e 33 21 be e8 86 ab be 8b 11 b6 3e
       -0.122650124 -0.15742227 -0.33501363 0.3556026
000030 74 e6 cc be 66 73 99 bd 59 c8 f6 bc 4a bc 58 bd
       -0.40019572 -0.07492714 -0.03012483 -0.05291394
000040 c2 57 82 3d 5f 77 21 bf c9 38 91 be 21 03 1d 3e
       0.06364395 -0.6307277 -0.28363636 0.15333225
000050 85 12 8d bc 7f 50 d0 3d fe b1 82 3d e6 3e 44 bf
       -0.017220745 0.101716034 0.063816056 -0.76658475
000060 60 4d 3b 3e e0 8e ac be 9e 6f b5 3e 42 23 04 bd
       0.18291235 -0.33702755 0.3543672 -0.032260187
000070 ed e3 00 3d 72 53 86 3d ad 51 ad bd 28 79 b7 3e
       0.031467367 0.06558885 -0.08462844 0.35834622

rnn.weight_hh_l0 f4 [32, 32]
000000 b2 a1 92 3f 43 50 40 be 28 b3 3c 3f 23 94 96 bf
       1.1455595 -0.18780617 0.7371087 -1.1763958
000010 19 77 23 be a1 de c0 3e ac 73 d6 3c 63 9d be 3e
       -0.15963401 0.37669852 0.026178204 0.37229452
000020 63 4f 3b 3d 10 ac b3 bf ee 05 a4 be 41 33 82 3e
       0.045730006 -1.4036884 -0.32035774 0.2542973
000030 1e 45 a6 3e 42 1f 7b bf 43 16 e2 3f c0 07 6f bf
       0.32474607 -0.9809457 1.7663044 -0.933712
000040 e1 cc 86 bf 6d b9 78 3f 6e 89 86 3f 05 2b 60 3f
       -1.0531274 0.9715794 1.051069 0.8756564
000050 b6 19 ea be e1 0b 65 bf 93 56 5a 3e f8 b0 1b bf
       -0.4572274 -0.8947125 0.21322088 -0.6081691
000060 72 16 0d bf cc 10 fa 3b 8a 38 7f be fe a2 26 3f
       -0.55112374 0.007631397 -0.24923912 0.65092456
000070 1d 1f 54 bf 50 64 0f 3f a5 b2 8f be 72 c4 3e bf
       -0.82859975 0.5601244 -0.28065982 -0.745185
000080 1e 17 c7 bf 1d ed 19 3f 58 71 7f be 0e 85 51 ba
       -1.555393 0.6012743 -0.24945581 -0.0007992544
000090 89 ee 1c 3f 0b 5a 3c bf a1 f8 eb 3e 74 8e c7 3e
       0.61301476 -0.73574895 0.46088126 0.3897587
0000a0 cb 67 6e 3f ff 8a d9 be f6 28 30 3f ec 41 4a bf
       0.93127126 -0.42488858 0.688125 -0.7900684
0000b0 97 bd 20 bf 10 47 2e 3e 87 76 95 bd 37 97 ba 3e
       -0.6278929 0.17019296 -0.07297998 0.36443493
0000c0 09 44 87 3d 9b f1 2d bf 18 c7 0c bf df 09 d8 3e
       0.066047736 -0.67946786 -0.5499129 0.4219503
0000d0 5e 37 c4 3d fe d3 32 3f c6 e5 e4 bf 0e 71 d2 be
       0.09580873 0.69854724 -1.7882621 -0.4110188
0000e0 ad 13 34 bd b0 75 22 be cc 36 b7 3e 7c c5 6a bf
       -0.043964077 -0.15865207 0.35783994 -0.9170759
0000f0 5e 8c 31 3e 19 95 6d bf 1c 13 d8 3f 9f 3b de 3c
       0.17338702 -0.9280563 1.6880832 0.027128039
000100 a6 51 04 be 29 4e 49 bf c0 b7 62 bf 51 01 fb be
       -0.12921771 -0.7863489 -0.8856163 -0.49024442
000110 fc d4 33 3f 77 6b 5f bf 2b dd 39 bf b0 cd b3 3d
       0.70246863 -0.87273353 -0.726031 0.08779466
000120 be 3c dd bd ea f5 61 3d 9b 4b c9 be ba 84 c7 3e
       -0.10802601 0.055166163 -0.39315495 0.3896845
000130 69 23 be 3f 6b 7a 82 3d fd 10 a3 be b5 3b 59 be
       1.4854556 0.063710056 -0.318489 -0.21214183
000140 93 a8 42 bf 66 6c 30 40 f9 16 88 3f 1e 8c b3 bf
       -0.76038474 2.756616 1.0632011 -1.4027135
000150 6c ff 3a bf 00 ec 46 3d c6 ac 73 3f ea b3 82 be
       -0.7304599 0.04856491 0.95185506 -0.2552789
000160 6a d2 9e bf 69 45 ca 3f 5d 44 7a bf 9c f6 53 3f
       -1.2407963 1.5802432 -0.97760564 0.8279817
000170 10 34 85 bf 52 18 ed 3e 79 a5 17 bf 81 70 06 bf
       -1.0406513 0.46307617 -0.59236866 -0.5251542
000180 b6 e2 fc bf 6f fd 2a 3d e3 af 29 3f a2 f9 08 bf
       -1.9756687 0.0417456 0.66284007 -0.5350591
000190 48 13 4c 3f bc 6d 5c bf 64 90 1d 3e cd 2d 7c 3e
       0.7971692 -0.8610494 0.15387112 0.24626847
0001a0 35 3d ad bc ae fb be be 51 7f fe bd 1d a6 e6 3c
       -0.02114735 -0.3730139 -0.124266274 0.02815538
0001b0 7a dc a8 be cf f3 d8 3e 67 84 f1 be d1 11 7c bd
       -0.3298071 0.4237351 -0.47171327 -0.06154043
0001c0 62 27 0a 40 5a 7d 3a be d0 6f e7 3e 3e f2 a1 3f
       2.1586537 -0.1821188 0.45202494 1.2652051
0001d0 53 d2 c9 3e f5 10 60 bd 8e da 3c 3d 7b b4 a3 bd
       0.39418277 -0.05470367 0.046106867 -0.07993408
0001e0 ec 27 37 3f 5f ef 50 3f f0 2d 32 be 04 94 bd bc
       0.7154529 0.8161525 -0.17400336 -0.023141868
0001f0 17 0c b7 3f 15 de 16 3f 56 bd bc be 69 30 bf 3e
       1.4300565 0.5893262 -0.36863202 0.37341622
000200 89 f9 dd 3e c4 0a bd 3f 92 9a 26 3f 5d 27 df 3e
       0.43354443 1.476891 0.65079606 0.4358472
000210 ff c5 c1 38 2f 22 15 3f c8 33 8d 3e 64 69 05 40
       9.239837e-05 0.58255285 0.27578568 2.0845575
000220 48 22 62 3e f1 44 5f bf a2 8a 9d bf 97 25 84 3f
       0.2208339 -0.8721457 -1.2307932 1.0323972
000230 64 d9 89 bf 06 18 25 bf a5 33 6a 3f d0 fd 5d be
       -1.0769467 -0.6448978 0.91485053 -0.21678853
000240 ca 90 b5 3f 21 95 25 bf be de 7e bf 07 02 42 3f
       1.4184811 -0.6468068 -0.9955863 0.75784343
000250 74 72 98 3e f5 8c ca 3e 4f b9 ad bf e2 41 e1 bf
       0.2977482 0.39560667 -1.3572177 -1.7598231
000260 60 72 eb 3e 7a bc d0 bf e1 84 46 3f e4 1c 9c bf
       0.459857 -1.6307518 0.7754651 -1.2196317
000270 d1 3e 97 3f 60 71 4a bf 27 c2 9f 3f a0 42 a8 3d
       1.1816045 -0.79079247 1.2481126 0.08215833
000280 b6 e8 0d 40 10 4f c3 be b1 29 26 3f 71 7d 23 bf
       2.2173285 -0.38146257 0.64907366 -0.63863283
000290 ba 0c 35 3e 15 26 cf 3e 38 1d a9 3c 17 b3 9a 3e
       0.17680636 0.40458742 0.020643815 0.3021476
0002a0 fb 60 bf 3d 8c 2e ad bf e9 49 94 be 6b 9e be 3d
       0.093446694 -1.352983 -0.2896264 0.093075596
0002b0 6e 8e 3b 3e 0f dc cf bf df 21 b0 3f 32 2a 43 bf
       0.18316051 -1.6239032 1.3760337 -0.7623626
0002c0 9a a1 3c bf a2 e6 08 3f 8b 65 0a 3f 67 8b ce 3e
       -0.73684084 0.5347692 0.5406119 0.4034073
0002d0 5a 40 6e bf 4d 7b f1 bd 70 ce fe 3e f5 6a 4b bf
       -0.9306694 -0.11791096 0.49766874 -0.7946008
0002e0 38 81 c4 bc 36 85 49 3f 52 73 08 bf b6 1a e5 3e
       -0.023987398 0.7871889 -0.53300965 0.4474694
0002f0 38 f7 83 bf 36 3a 22 3e f9 f3 4e be db 62 84 bf
       -1.030982 0.15842518 -0.20210256 -1.0342668
000300 2b 4e 16 be 16 62 c4 3d cf 61 d3 be 00 d8 0d 3e
       -0.14678256 0.09589021 -0.4128556 0.13851929
000310 fe 1b 02 be e3 bd 70 be a7 bd 2e 3f a9 25 b7 3d
       -0.1270599 -0.23509936 0.68258137 0.0894273
000320 a8 6e bc be b6 67 9b 3e fc c0 b3 3e 0c cd af be
       -0.36803174 0.30352563 0.35108173 -0.34336126
000330 69 51 0b be 23 d8 94 3e 39 9b 95 be 71 22 2a 3d
       -0.13605274 0.2907115 -0.29219988 0.041536752
000340 bc 26 15 3e aa b3 3a 3f 07 5e 81 be 57 ac 96 be
       0.14565557 0.72930396 -0.2526705 -0.2942836
000350 42 b5 bb 3d 64 a8 53 3e cf 04 82 bd 12 53 1a 3e
       0.091654316 0.20669705 -0.063485734 0.15070751
000360 bd 6c ab 3d dc 00 b3 3e 63 98 c5 3e dd f3 2d be
       0.083703496 0.34961593 0.38592824 -0.16987558
000370 6e c1 1f 3e ea a2 e5 bc f1 88 44 3e 7a 74 42 3e
       0.15601131 -0.028031785 0.19192864 0.18989745
000380 59 ef 74 bc 41 e7 26 be a6 c7 2a 3e bb 0b b6 be
       -0.014949643 -0.16299154 0.16677722 -0.35555825
000390 f6 f0 43 3f 7d 37 2d 3e 96 7f 75 3f b1 72 ff 3e
       0.7653955 0.16915698 0.95897806 0.4989219
0003a0 a5 3f 24 bf 35 bf 47 be d8 83 3d bc 70 b6 22 3e
       -0.64159614 -0.19506533 -0.0115670785 0.15889907
0003b0 25 71 41 3e b4 1c 82 ba 66 6e 96 3d 02 9d 6a 3e
       0.18890817 -0.0009926767 0.073452756 0.22911456
0003c0 10 fa d8 bc b3 9b 19 bf d2 6d ec bd 16 5b 14 3f
       -0.026486427 -0.60003203 -0.11544384 0.57951486
0003d0 4a 88 28 3e 75 48 e7 be f3 83 28 3e ba 6d 58 bf
       0.1645824 -0.45172468 0.16456585 -0.8454243
0003e0 df 1b 12 3f a1 19 9b be f4 fc cd 3d 59 ab 44 3e
       0.5707378 -0.3029299 0.100580126 0.19205989
0003f0 07 88 b8 3d 19 fc 0f 3f cc 35 84 be ea c1 89 3d
       0.0901032 0.56244045 -0.25822294 0.06726439

rnn.bias_ih_l0 f4 [32]
000000 c6 90 32 bf 60 92 95 3f 30 0c 9a bf 41 ff 49 3f
       -0.69752157 1.1685295 -1.2034969 0.7890511
000010 4a 7b 6d 3f 23 8e b5 be eb f2 84 be 41 e9 f2 bc
       0.9276625 -0.35460004 -0.25966582 -0.02965224
000020 56 cf 58 3f f1 d9 8c 3f ce 85 ff 3f 6a ce 02 c0
       0.8469137 1.100401 1.9962709 -2.0438485
000030 46 3e f0 be c4 ae 46 3e 9a ea 34 bf 2f 18 0d 3e
       -0.4692251 0.19402605 -0.70670474 0.13778757
000040 a7 49 21 3f d6 22 18 3e 07 b9 0b bf c4 5a 19 bf
       0.6300301 0.14857039 -0.54579204 -0.5990412
000050 51 82 01 3e 71 1a 8b 3f 81 1e a5 bf 4c 98 f8 3e
       0.12647368 1.0867444 -1.2899934 0.48553693
000060 69 61 8f 3e 66 71 fe 3e cb 80 80 3f 4d 6d bc bf
       0.28004006 0.4969589 1.0039304 -1.4720856
000070 12 65 ae 3e b4 b8 bd bf 90 a1 d5 3f 33 f2 a8 3e
       0.34061486 -1.4821992 1.668993 0.32997283

rnn.bias_hh_l0 f4 [32]
000000 8f 3f 0d bf ab ca 93 3f da 28 a7 bf ce b8 34 3f
       -0.5517511 1.1546224 -1.3059342 0.7059449
000010 ed 10 86 3f 48 34 8e be b4 bd 28 be 8f 0d 64 be
       1.0473915 -0.27774262 -0.16478616 -0.22270797
000020 d0 2f 3c 3f c8 89 82 3f db a5 ed 3f 55 f9 f8 bf
       0.73510456 1.0198298 1.856624 -1.945109
000030 28 e9 f1 be 97 d7 f8 3d 64 2c 28 bf 54 f9 14 3e
       -0.47248197 0.121504955 -0.65692735 0.14548236
000040 56 fd 11 3f dc 1f 8c 3d 79 4b 05 bf e4 dc 37 bf
       0.57027185 0.06842014 -0.5206829 -0.7182143
000050 a1 7b 5b 3d d4 10 96 3f 96 5e a0 bf cd a1 1f 3f
       0.0535847 1.1723886 -1.2528865 0.62356263
000060 af cc 49 3e 4e 2a 2c 3f 01 91 86 3f 4f 34 cd bf
       0.19706987 0.6725205 1.0513002 -1.6031588
000070 3f 83 8f 3e f9 07 b0 bf 2b 01 cc 3f 33 f4 d3 3e
       0.2802982 -1.3752433 1.5937856 0.41397247

fc.weight f4 [1, 32]
000000 88 ee ef 40 10 f5 f1 40 c1 86 09 41 2d 0b c2 40
       7.4978676 7.561165 8.595399 6.063864
000010 30 fd 13 41 ad 50 d9 40 90 f0 43 3f b2 b8 42 40
       9.249313 6.791098 0.76538944 3.042523
000020 e4 d6 b5 3f f8 be 03 c1 e7 b8 1c c1 c7 ab 1c 41
       1.4206204 -8.234123 -9.795142 9.791938
000030 9f 3d 3e c0 20 1c e3 c0 e0 ca c9 40 66 0b d2 40
       -2.972511 -7.097183 6.306015 6.5638914
000040 ca a0 94 40 58 10 9f bf cc bd 1e c0 31 32 e5 40
       4.6446276 -1.2426863 -2.4803343 7.162377
000050 59 a1 86 40 47 e3 0f 41 b0 45 a8 c0 79 ce 49 c0
       4.2071958 8.992988 -5.258507 -3.153227
000060 7f 6b 16 40 cf bc 9d c0 82 17 16 40 96 98 8e c0
       2.350311 -4.929298 2.3451848 -4.456126
000070 05 51 ac 40 00 6d 04 c1 db f4 90 40 e6 01 15 c0
       5.38489 -8.276611 4.5298896 -2.3282409
